physics_model.onnx (onnx, 83088 bytes, 3 tensors)

conv1.bias f4 [64]
00000000: 0000 0000 0000 0000 d971 d23e 0000 0000
00000010: 53a2 d43e 8261 d63e 0000 0000 0000 0000
00000020: 8924 b83e de1b d73e 7d1c 81bc f705 d53e
00000030: ad16 d03e 2a2d d33e 9dd5 d53e b571 d23e
00000040: 5772 d43e 470b 8abc 0000 0000 db24 c83e
00000050: a50c d13e 1012 cc3e 1cbd d43e fc1a e9bc
00000060: 0000 0000 f064 c83e 5717 d63e e228 d33e
00000070: c518 d73e 0910 c93e 2962 d13e e4ad d63e
00000080: 117c 02bc 0000 0000 0000 0000 ed37 ce3e
00000090: d8c9 c4bb 350d d13e 0000 0000 b2cb cc3e
000000a0: 3a33 45bc 8073 d33e 1253 d63e 5c56 d33e
000000b0: 0000 0000 f676 d03e 5d16 c43e fac9 adbc
000000c0: 7a09 d03e 48f9 d33e 10d8 74bc 7c53 b03e
000000d0: fd7c d03e 7bd6 6fbc 056d bc3e 0255 d53e
000000e0: 6ee5 bc3e 6cc3 d23e 5838 bf3e 3bfe ce3e
000000f0: a542 c83e 0a3e d53e 1a5d d33e c0a0 d63e
0.0 0.0 0.41102484 0.0 0.41530094 0.41871268 0.0 0.0
0.35965374 0.42013448 -0.015760655 0.41606113 0.406423 0.41245395 0.41764536 0.41102377
0.41493484 -0.01685108 0.0 0.39090618 0.4082996 0.3985753 0.4155053 -0.02845525
0.0 0.3913951 0.41814682 0.4124213 0.42011085 0.39270046 0.40895203 0.41929543
-0.00796415 0.0 0.0 0.40277043 -0.006005507 0.4083039 0.0 0.39999157
-0.012036139 0.41299057 0.41860253 0.41276824 0.0 0.4071576 0.38298312 -0.021214474
0.4063223 0.41401124 -0.014944091 0.34438694 0.40720358 -0.0146385385 0.36801925 0.41666418
0.3689379 0.4116472 0.37347674 0.40428337 0.39113346 0.41648895 0.41281968 0.41919518

conv2.bias f4 [64]
00000000: 128f a1be 3c68 973e 0ae2 99be ae61 b83e
00000010: ac51 ad3e 9632 acbe 9d7a ab3e 950f 9c3e
00000020: 9814 9e3e 1693 a6be 8e35 9bbe 71dc 95be
00000030: 30a0 97be 7c02 a13e a34f 9a3e 3f61 ab3e
00000040: 6438 a4be bda8 95be 0097 a13e b67a a03e
00000050: 6371 b8be 1063 a9be fded a1be 33a9 a4be
00000060: eb49 a1be be44 993e 866e acbe 9e0a b1be
00000070: 00f5 b3be a1d8 b33e 334c 9bbe 39af 9d3e
00000080: d382 8b3e ae63 9b3e 31ff ae3e 51ad 9e3e
00000090: f2e3 a73e bbdc ab3e 1ada a23e 9da9 9e3e
000000a0: f863 a83e bc30 aabe 035d a23e f730 adbe
000000b0: aacd a83e 2f48 a9be a2c8 9abe bef6 9ebe
000000c0: 3fc3 9ebe 14a8 973e 2e14 b13e bf16 b73e
000000d0: ee49 aa3e e961 a6be 8d85 9f3e 5793 b93e
000000e0: 4f59 97be 720c adbe 7ab1 b1be bf11 a13e
000000f0: 2ed5 98be 412a a0be 7317 a83e 5032 953e
-0.31554466 0.29571712 -0.30055267 0.36012024 0.33851373 -0.33632344 0.33491984 0.30480638
0.30875087 -0.32534093 -0.30314296 -0.29269746 -0.296144 0.31447208 0.30138883 0.3347263
-0.32074273 -0.292303 0.31560516 0.3134362 -0.36024007 -0.3308339 -0.31626883 -0.3216034
-0.31501707 0.2993526 -0.33678073 -0.34578413 -0.35147858 0.35126212 -0.30331573 0.30797747
0.27248248 0.30349487 0.3417907 0.30991605 0.32791096 0.3356684 0.31807023 0.3098878
0.3288877 -0.33240306 0.31711587 -0.3382642 0.3296941 -0.33062884 -0.30231196 -0.31047624
-0.31008336 0.2962042 0.34585708 0.3575954 0.3325953 -0.32496575 0.3115658 0.36245224
-0.29560325 -0.33798558 -0.34705716 0.31458852 -0.29850143 -0.31282237 0.3283039 0.29139948

lin.weight f4 [1, 64]
00000000: 4cc5 ff3e 18fd 0cbf 335a 063f 98c9 ddbe
00000010: b803 ebbe 0cc5 e73e 15a5 efbe d2c9 03bf
00000020: b364 03bf 3fa7 f13e 56d8 033f 1542 113f
00000030: cc3f 093f 421d fbbe dec1 07bf 2b87 edbe
00000040: e575 f53e 19f0 0d3f 1053 fcbe 16e1 00bf
00000050: cde5 da3e 0443 ec3e 2605 fd3e b68f f43e
00000060: 3a07 fe3e 8c57 07bf 8c65 e93e ce47 ea3e
00000070: c326 d53e f302 e5be f263 073f d152 00bf
00000080: bba3 c9be 67b4 08bf 9482 eabe dc2d 03bf
00000090: 133d f2be 9bb7 eebe 7c81 fcbe b7e3 02bf
000000a0: 9fb3 f2be 9bdb ec3e c807 f7be 6563 ea3e
000000b0: 4c28 e7be c631 d93e 73ab 043f a1f9 f93e
000000c0: 55ba fd3e cff1 09bf 3e7a e8be 7ce5 e0be
000000d0: c551 edbe d834 f33e 189d 04bf f3c4 dbbe
000000e0: 61d0 083f 72df d53e 6c2d d23e ffde f9be
000000f0: 8008 093f b9db 003f 99c2 f5be 4885 0ebf
0.49955213 -0.5507369 0.52481383 -0.43317866 -0.45901275 0.45267522 -0.46805635 -0.5147983
-0.5132553 0.4719791 0.5150198 0.5674146 0.5361297 -0.4904576 -0.5303019 -0.46392187
0.4794151 0.55444485 -0.49282122 -0.50343454 0.4275345 0.4614488 0.4941799 0.47765893
0.49614888 -0.5286796 0.45585287 0.45757908 0.41631135 -0.44728813 0.5288688 -0.5012637
-0.3938273 -0.5340027 -0.45802748 -0.5124185 -0.4731222 -0.46624455 -0.4931754 -0.51128715
-0.47402665 0.46261296 -0.48248124 0.45778957 -0.45147932 0.42420787 0.5182411 0.48823264
0.49556223 -0.53884596 -0.45405763 -0.43925083 -0.46351448 0.47501254 -0.51802206 -0.42923698
0.5344296 0.41772038 0.4105028 -0.48802945 0.53528595 0.5033527 -0.4800003 -0.5567212
